LivelinesDetection/src/main/assets/model.tflite (tflite, 945744 bytes, 6 tensors)

model/conv2d/Relu;model/conv2d/BiasAdd;model/conv2d/Conv2D;model/conv2d/BiasAdd/ReadVariableOp f4 [32]
0	0xbe97247f	-0.29520032
1	0x3d4e6d00	0.05039692
2	0xbbf44b80	-0.0074552894
3	0xbe14b1fa	-0.14521018
4	0xbb417880	-0.0029521286
5	0xbeba9702	-0.36443335
6	0x3d56de10	0.05245787
7	0xbe6abd68	-0.22923815
8	0xbe8b84cf	-0.27249762
9	0xbd99d584	-0.07511428
10	0xbd74b290	-0.059740603
11	0xbe1b503f	-0.1516733
12	0x3c118240	0.008881152
13	0xbdea3270	-0.114354014
14	0xbe5423b5	-0.20716746
15	0x3a853b00	0.0010164678
16	0xbd97b4aa	-0.07407506
17	0xbab98c00	-0.0014156103
18	0xbeac745e	-0.3368253
19	0x3cad6d10	0.02117017
20	0xbe31f028	-0.17376769
21	0xbc869a40	-0.016430974
22	0xbf1ca8e4	-0.61195207
23	0x3dee749c	0.11643335
24	0xbe121558	-0.14265954
25	0x3ded3038	0.115814626
26	0x3e3daec2	0.18523696
27	0x3de124c0	0.10993338
28	0xbeb958d0	-0.3620057
29	0xbf129ab8	-0.5726733
30	0xbea205f4	-0.31645167
31	0x3d822516	0.0635473

model/conv2d/Relu;model/conv2d/BiasAdd;model/conv2d/Conv2D;model/conv2d/BiasAdd/ReadVariableOp1 f4 [32, 3, 3, 1]
0	0x3f2e46e7	0.6807694
1	0x3e462581	0.19350244
2	0xbd3befce	-0.045882992
3	0xbf4c11ff	-0.7971496
4	0xbe186256	-0.14881262
5	0x3f663068	0.8991761
6	0xbe064bdc	-0.13114876
7	0xbeb52075	-0.35376325
8	0x3e2db4a8	0.16963446
9	0xbee895b4	-0.45426714
10	0xbd9da2c5	-0.076970614
11	0x3f3c93bb	0.7366292
12	0xbf4d14bf	-0.8010978
13	0x3e16bf99	0.14721526
14	0xbf3efc60	-0.74603844
15	0x3e92f393	0.28701457
16	0x3ee0f763	0.4393874
17	0x3ea26947	0.31720945
18	0x3f85beea	1.0448887
19	0xbf330590	-0.6993036
20	0xbf632176	-0.8872293
21	0xbec467ed	-0.3836054
22	0x3e7f6ce7	0.24943887
23	0x3fb7ff56	1.4374797
24	0xbe770d2b	-0.24126117
25	0x3ee7e9fe	0.4529571
26	0xbfa38b49	-1.2776881
27	0x3f8d84cf	1.1056155
28	0xbedd2bf6	-0.43197602
29	0xbf179cf6	-0.5922388
30	0xbf4a2e6b	-0.7897708
31	0x3f5f0b25	0.8712638
32	0x3e12d31c	0.14338344
33	0x3bdd8643	0.00676039
34	0xbf40c729	-0.75303894
35	0x3f06248f	0.52399534
36	0x3ebc36f4	0.36760676
37	0x3e589817	0.21151768
38	0xbf650c39	-0.89471775
39	0x3e64948b	0.2232229
40	0xbef85270	-0.48500395
41	0x3f7651e5	0.9621871
42	0xbf450776	-0.7696451
43	0xbe6d6e77	-0.2318667
44	0x3f13de19	0.5776077
45	0xbee93a1f	-0.45552155
46	0xbf8bfef4	-1.093718
47	0x3f03ab32	0.514331
48	0x3e5af089	0.2138082
49	0x3f14410f	0.5791177
50	0x3e8a73ae	0.27041382
51	0x3d2aafea	0.04167167
52	0xbdeba146	-0.1150537
53	0x3ef65557	0.48111984
54	0xbf191b76	-0.5980753
55	0xbef79310	-0.48354387
56	0x3f1e1a5c	0.6175897
57	0x3f3d1805	0.73864776
58	0x3f69c2c8	0.9131284
59	0xbd3e74a9	-0.046497975
60	0x3d3ded61	0.04636896
61	0xbef213e8	-0.47280812
62	0xbf4ae0d3	-0.79249305
63	0x3ea15a5d	0.31514254
64	0xbe15b290	-0.14618897
65	0x3f4c5215	0.7981275
66	0x3ef80eb2	0.48448712
67	0xbee14c4c	-0.44003522
68	0xbe037351	-0.12836958
69	0x3ee76e6c	0.45201433
70	0xbf525438	-0.8215976
71	0xbed17360	-0.40908337
72	0xbe77af58	-0.24187982
73	0xbf1d6b64	-0.6149199
74	0x3d78d950	0.06075412
75	0x3f81b1df	1.0132407
76	0x3b453935	0.0030093913
77	0xbf41f80a	-0.757691
78	0x3f2cf154	0.6755574
79	0xbe94573a	-0.289728
80	0x3e96871a	0.2939995
81	0x3c50b26b	0.012737851
82	0xbe63677c	-0.22207445
83	0xbefc903b	-0.4932879
84	0xbea3d487	-0.31998083
85	0xbe9cf0ba	-0.3065241
86	0xba117680	-0.0005548969
87	0x3ea367be	0.31915087
88	0x3f6a205a	0.91455615
89	0x3e91a6c3	0.28447542
90	0x3e3bbf0e	0.183346
91	0x3ed394ee	0.41324562
92	0x3f0087c3	0.50207156
93	0xbe44cd58	-0.19218957
94	0x3f18b4d8	0.59650946
95	0xbf1cbd56	-0.61226404
96	0xbdb3c0e4	-0.08777025
97	0x3dc93431	0.09824408
98	0xbf4531f4	-0.7702935
99	0x3eafb889	0.34320477
100	0x3ed62e54	0.4183222
101	0x3f010634	0.5040009
102	0xbdb8c6b6	-0.09022276
103	0xbea72a40	-0.32649422
104	0x3dd744e8	0.1051119
105	0xbe9f1efa	-0.3107832
106	0xbd4c30e8	-0.049851328
107	0xbe8fceab	-0.28087363
108	0x3ef3d540	0.47623634
109	0xbeadc9b2	-0.33942944
110	0xbf754c83	-0.9581987
111	0x3f1f262c	0.6216762
112	0x3ed152ab	0.40883383
113	0xbf5c328c	-0.8601463
114	0xbf734333	-0.9502441
115	0x3f373f93	0.7158138
116	0x3f5d437d	0.86431104
117	0x3e2b3e71	0.16723038
118	0xbf2b7182	-0.66970074
119	0xbf3990f7	-0.72486824
120	0x3eddbb53	0.4330698
121	0x3ec33f58	0.38134265
122	0x3f31fda8	0.69527674
123	0x3d241b42	0.040065058
124	0x3f2015ea	0.6253344
125	0xbf4d060b	-0.80087346
126	0x3f8835b2	1.0641387
127	0x3e0258af	0.12729143
128	0x3f0912ee	0.5354451
129	0xbf823bb1	-1.0174466
130	0xbf9244f4	-1.1427293
131	0xbe616208	-0.22010052
132	0x3e2deb46	0.16984281
133	0x3f2da83d	0.67834836
134	0x3e5e1a8b	0.21689813
135	0x3e195b78	0.14976299
136	0xbd69a01e	-0.057037465
137	0x3f29e06b	0.6635806
138	0xbf731680	-0.9495621
139	0x3eb563a1	0.35427573
140	0xbf834266	-1.0254638
141	0x3e52b656	0.20577368
142	0x3f85f627	1.0465745
143	0xbefbabcf	-0.49154517
144	0xbfa7e34c	-1.311624
145	0x3e229e6d	0.15880747
146	0x3f3a9bdb	0.72894067
147	0xbe37ebea	-0.17961088
148	0xbe6271eb	-0.22113769
149	0x3eb8aaa3	0.36067685
150	0x3e7489a1	0.23880626
151	0xbde511de	-0.111850485
152	0x3e916d18	0.28403544
153	0xbec076ad	-0.37590542
154	0x3b5f758f	0.003409717
155	0x3f4dee3a	0.8044163
156	0xbf38fbfa	-0.72259486
157	0x3eb470d9	0.35242346
158	0x3f8a2c86	1.0794837
159	0xbe994712	-0.29937035
160	0xbe978ece	-0.2960114
161	0xbf3e1e12	-0.74264634
162	0x3e89578d	0.26824608
163	0xbe81c168	-0.2534287
164	0x3f6a9900	0.9163971
165	0x3f14a4b4	0.5806382
166	0xbf82bf57	-1.0214642
167	0x3ee03441	0.43789867
168	0xbfa8b85e	-1.3181264
169	0x3f026fbe	0.50951755
170	0x3d69cf09	0.05708221
171	0xbf24b97d	-0.6434553
172	0x3f40daa5	0.75333625
173	0xbf833573	-1.0250686
174	0x3f93e3d8	1.1553907
175	0xbd0d86ac	-0.03455226
176	0xbe2c292d	-0.16812582
177	0x3ea9010a	0.33008605
178	0xbf804470	-1.0020885
179	0x3edd573c	0.43230617
180	0xbe94ba9f	-0.2904863
181	0x3ec888e5	0.39166942
182	0x3de18bd5	0.11012999
183	0xbec75c8c	-0.38937795
184	0xbf000b2d	-0.5001705
185	0x3f9d463f	1.2287062
186	0x3f13e89c	0.5777681
187	0xbf285b35	-0.6576417
188	0xbea0660e	-0.31327862
189	0x3e24cb82	0.16093257
190	0x3e175658	0.14779031
191	0xbe8ac665	-0.27104488
192	0x3f13ae8a	0.576882
193	0x3f0bf87d	0.5467604
194	0xbf20233b	-0.6255376
195	0x3eaeb72a	0.34124118
196	0xbe97f81b	-0.29681477
197	0xbf1c901e	-0.61157405
198	0x3f6d2c84	0.9264605
199	0x3ea4143f	0.32046697
200	0xbf326a87	-0.696938
201	0x3f20e6b7	0.6285204
202	0x3f3e4a47	0.7433209
203	0xbc4c979e	-0.01248732
204	0xbf6bd87a	-0.9212719
205	0x3eb1fb8c	0.34762228
206	0xbeff3c80	-0.49850845
207	0xbef41682	-0.47673422
208	0xbf562d06	-0.8366245
209	0xbb4ed2c2	-0.0031558727
210	0x3ee1b8c7	0.44086286
211	0xbf2fbf78	-0.68651533
212	0xbe890e11	-0.26768544
213	0xbe004db9	-0.12529649
214	0x3e821fb9	0.25414827
215	0x3f76765f	0.9627437
216	0x3f817949	1.0115138
217	0x3f84bf0b	1.0370802
218	0xbec4ca9b	-0.38435826
219	0xbe22dc78	-0.15904415
220	0xbd99b24a	-0.07504709
221	0x3e992456	0.29910535
222	0xbeb502b6	-0.3535363
223	0xbf220af8	-0.63297987
224	0xbf83cdd4	-1.0297189
225	0x3ed0a15b	0.40748104
226	0xbe838820	-0.25689793
227	0x3f2ffc10	0.6874399
228	0xbe23882f	-0.15969919
229	0xbf6cde09	-0.925263
230	0xbeadd290	-0.3394971
231	0x3f921987	1.141404
232	0xbeade9fc	-0.33967578
233	0xbf8283d0	-1.0196476
234	0xbdf43a11	-0.11925138
235	0x3d3cecf1	0.046124402
236	0x3e0240de	0.12720057
237	0xbf818a79	-1.0120384
238	0xbe575c48	-0.21031296
239	0x3f52f2c7	0.824017
240	0xbf3ea76f	-0.74474233
241	0x3f3e97e0	0.7445049
242	0xbef84c76	-0.48495835
243	0x3f35cf68	0.710196
244	0xbeb7eedb	-0.3592442
245	0x3f78ba07	0.97158855
246	0xbeef9f6d	-0.4680132
247	0x3f075cf9	0.5287624
248	0x3eb50cae	0.35361236
249	0xbf473ccb	-0.7782714
250	0xbec19106	-0.37805957
251	0xbf660a94	-0.8985989
252	0xbda2520c	-0.079258054
253	0x3f568ebf	0.83811563
254	0x3f350e3e	0.70724857
255	0x3e359c0b	0.17735307

model/conv2d_1/BiasAdd/ReadVariableOp f4 [64]
0	0xbd053081	-0.03251696
1	0xbda87698	-0.08225745
2	0xbd7a4f11	-0.06111056
3	0x3c2b4eda	0.010455811
4	0x3b963a75	0.0045846053
5	0x3d509370	0.050921857
6	0x3cb72229	0.022355156
7	0xbdba2a92	-0.09090151
8	0xbd000d13	-0.03126247
9	0x3cec6044	0.028854497
10	0x3d02e75a	0.031958915
11	0x3d2dab52	0.042399712
12	0xbdcf6d17	-0.10128229
13	0x36606680	3.3438264e-06
14	0x3c8ccfc0	0.017188907
15	0xbb532be7	-0.0032222213
16	0x3deae758	0.114699066
17	0xbe000da3	-0.12505202
18	0x3c0e91cc	0.008701753
19	0xbd3adb0a	-0.04561905
20	0xbdbcfaea	-0.092275456
21	0xbd8590d4	-0.065217644
22	0xbd5be96e	-0.053689413
23	0xbe79cb00	-0.24393845
24	0x3e01077e	0.12600514
25	0x3d0f4c5d	0.034984935
26	0xbcef2860	-0.029194057
27	0x3cfffd64	0.031248756
28	0xbd09ba15	-0.033624727
29	0xbd62ce36	-0.05537244
30	0xbe2bb4de	-0.16768214
31	0xbe099825	-0.13436945
32	0xbd8c6ffd	-0.068572976
33	0xbc3f2636	-0.011666825
34	0x3c451f6c	0.012031417
35	0xbc1a58bb	-0.009420569
36	0xbcd5750d	-0.02605679
37	0xbd8622eb	-0.06549629
38	0xbc96bf60	-0.018401802
39	0xbc97be93	-0.01852349
40	0xbd305e66	-0.043058775
41	0xbd5ba72c	-0.053626224
42	0x3cb894cd	0.022531891
43	0xbe24d73d	-0.16097732
44	0xbcc2e5bc	-0.023791187
45	0xbe359516	-0.17732653
46	0xbd873eaa	-0.06603749
47	0xbd872783	-0.06599333
48	0xbd2a0d81	-0.041516785
49	0xbca07259	-0.019585775
50	0x3bf3e4c4	0.0074430425
51	0xbd668195	-0.056275923
52	0xbdf9be0c	-0.12194452
53	0x3c9ad8e3	0.018902248
54	0xbc5892c9	-0.01321859
55	0xbd775230	-0.060381114
56	0xbe244d61	-0.16045143
57	0xbdd4717c	-0.10373208
58	0x3cb8e9bf	0.022572396
59	0xbd405de2	-0.046964534
60	0xbd24779f	-0.040153142
61	0xbdecb4c1	-0.115579136
62	0xbdb7cd9b	-0.08974763
63	0xbd269e65	-0.0406784

model/conv2d_1/Conv2D f4 [64, 3, 3, 32]
0	0xbe92e365	-0.28689113
1	0x3df32297	0.11871832
2	0xbe7d9f65	-0.24767835
3	0xbeeb3650	-0.45939875
4	0xbe4e83a4	-0.20167404
5	0xbd2cda9e	-0.042200677
6	0xbdbe33f1	-0.09287251
7	0x3d19529a	0.03743229
8	0xbe72d5b3	-0.23714332
9	0x3d42c55d	0.0475515
10	0xbd8afd52	-0.06786598
11	0xbd8fe943	-0.07026913
12	0xbe5aed05	-0.21379478
13	0xbda2d971	-0.0795163
14	0xbe3b5f69	-0.18298115
15	0xbe5a8b25	-0.21342142
16	0x3df0aae0	0.11751342
17	0xbe7c4e6a	-0.24639288
18	0xbeac32b2	-0.33632427
19	0xbd610b82	-0.054942615
20	0x3d69d285	0.057085533
21	0x3d8357a3	0.064132
22	0xbcb77b0d	-0.022397542
23	0x3d4457fb	0.047935467
24	0x3cfda8ac	0.030964218
25	0xbe2c5ef8	-0.16833103
26	0xbd0bfe5c	-0.034178123
27	0xbe792f3c	-0.24334425
28	0x3d345210	0.044023573
29	0xbe71a565	-0.2359825
30	0x3d528fb3	0.051406574
31	0x3d196cd8	0.037457317
32	0xbcf5de3f	-0.030013202
33	0xbea93e8d	-0.33055535
34	0xbe6f79af	-0.23386262
35	0xbe749a64	-0.2388702
36	0xbeaa25ca	-0.33231956
37	0xbd2cf7ae	-0.042228393
38	0x3c506e04	0.012721542
39	0xbea88bf9	-0.3291929
40	0xbc5184ac	-0.012787979
41	0xbdfbbb3a	-0.1229157
42	0x3c9d6aa7	0.019215895
43	0xbdcfbeab	-0.10143789
44	0xbe080241	-0.1328211
45	0xbea06aee	-0.3133158
46	0xbd8f4048	-0.069946826
47	0xbe8dd684	-0.27702725
48	0xbd3c6e4b	-0.04600362
49	0xbe8b3be5	-0.27194133
50	0xbe4f403f	-0.20239352
51	0xbe31e6dd	-0.17373224
52	0x3c890b0c	0.0167289
53	0xbe54c827	-0.20779477
54	0x3ccb2400	0.02479744
55	0xbda514ac	-0.080605835
56	0xbeb6ce93	-0.3570448
57	0xbec1b6ac	-0.3783468
58	0xbee6004b	-0.449221
59	0xbde43c6d	-0.11144338
60	0xbddbb115	-0.10727135
61	0xbe833139	-0.2562349
62	0xbea62346	-0.32448786
63	0xbe1e31a3	-0.15448622
64	0xbe922d1c	-0.2855004
65	0xbd2e3be1	-0.042537574
66	0xbea2b5ed	-0.31779423
67	0xbf10522a	-0.5637537
68	0xbe3bb61f	-0.18331192
69	0xbe7a7607	-0.24459086
70	0xbd3814a3	-0.044941556
71	0xbe93d30f	-0.28871962
72	0xbe2a5d81	-0.16637231
73	0x3d39da1d	0.045374025
74	0xbe5d09ff	-0.21585844
75	0xbdf02157	-0.11725109
76	0xbe48e08a	-0.19616905
77	0x3daf8168	0.08569604
78	0xbe8fd0d5	-0.28089014
79	0xbe958d71	-0.29209474
80	0x3ceb723e	0.028740998
81	0xbea2f385	-0.31826416
82	0xbee0a436	-0.43875283
83	0x3c1d0b5f	0.009585231
84	0xbe593d4e	-0.21214792
85	0xbd87f786	-0.06639008
86	0x3d11f0d6	0.03563007
87	0xbd867284	-0.06564811
88	0xbeb2df82	-0.34936148
89	0xbdc7fd83	-0.097651504
90	0xbea9605b	-0.33081326
91	0xbe653f37	-0.22387396
92	0xbe486d41	-0.19572927
93	0xbeba4d20	-0.36386967
94	0xbd805cbc	-0.06267688
95	0xbdd8bc06	-0.105827376
96	0xbd084f3d	-0.033278693
97	0x3ceee93d	0.029163951
98	0xbe0c4e0d	-0.13701649
99	0xbe2a9a0b	-0.16660325
100	0xbe8ae47d	-0.27127448
101	0x3d2d17e6	0.04225912
102	0x3dd8424c	0.1055952
103	0x3dbc0813	0.091812275
104	0x3d97f540	0.074198246
105	0xbe0c8957	-0.13724266
106	0xbdc84fdd	-0.09780858
107	0xbd3053c3	-0.04304863
108	0xbde58dfb	-0.11208721
109	0xbdea68b3	-0.11445751
110	0x3d099e00	0.033597946
111	0x3b740f5f	0.0037240607
112	0xbd0b28dc	-0.033974513
113	0x3e2b9d3b	0.16759197
114	0xbe70043e	-0.23439118
115	0x3e21c8c2	0.1579924
116	0xbd9511a8	-0.07278758
117	0xbe1b848f	-0.15187286
118	0xbe99d3fc	-0.30044544
119	0xbea2cff8	-0.31799293
120	0xbe2a5bf1	-0.16636635
121	0xbddd5457	-0.10807102
122	0xbe34316d	-0.1759698
123	0x3e2ef945	0.17087276
124	0xbd726001	-0.059173588
125	0x3dcee743	0.101027034
126	0xbc07e33e	-0.008293925
127	0x3d8daf50	0.06918204
128	0xbd934c30	-0.07192266
129	0xbe95fc12	-0.29293877
130	0xbf202e07	-0.6257023
131	0xbe4efe06	-0.2021409
132	0x3cc6c90a	0.024265785
133	0x3dd88d0d	0.10573778
134	0xbd886c55	-0.06661288
135	0xbf0e35bf	-0.5555076
136	0xbe8e7662	-0.27824694
137	0xbd040b4b	-0.032237332
138	0xbd05f7ed	-0.032707144
139	0x3e07a50c	0.13246554
140	0xbc346fd5	-0.011012991
141	0xbe9ff99a	-0.31245118
142	0x3ae809c4	0.0017703106
143	0xbd5cbd6d	-0.053891588
144	0xbeac7a71	-0.33687165
145	0xbd80638c	-0.06268987
146	0xbe98f287	-0.29872534
147	0x3bb00901	0.005372167
148	0x3d788b72	0.06067986
149	0xbea6a06a	-0.3254426
150	0xbe47d3b1	-0.19514348
151	0xbe14b5d2	-0.14522484
152	0xbe10a016	-0.14123568
153	0xbec5c1ab	-0.3862432
154	0xbe91251b	-0.28348622
155	0xbde01a4e	-0.10942517
156	0xbe03b94f	-0.12863658
157	0xbc6f4791	-0.014604465
158	0xbcd40e04	-0.02588559
159	0xbe06b35f	-0.13154362
160	0x3e1628ee	0.14664051
161	0x3d380bab	0.044933002
162	0xbd494020	-0.04913342
163	0xbec30db7	-0.380964
164	0xbe9ff6ba	-0.31242925
165	0xbc9de522	-0.019274298
166	0xbe58781f	-0.21139573
167	0xbd17539b	-0.036944967
168	0xbe217ac3	-0.15769486
169	0xbe17d910	-0.14828897
170	0xbcfd62ef	-0.030930964
171	0x3db4d8b0	0.08830392
172	0xbe0d3ad7	-0.13791977
173	0x3cd6b527	0.026209427
174	0x3d9ab75c	0.07554504
175	0x3d22b51d	0.039723504
176	0xbdd9fc1b	-0.106437884
177	0xbd5f951b	-0.054585557
178	0xbe13ee80	-0.1444645
179	0xbea9a52e	-0.33133835
180	0x3e86dfa7	0.26342508
181	0x3d1820d4	0.037140682
182	0x3dcc6b54	0.09981409
183	0xbe23e49c	-0.16005176
184	0xbccda3e2	-0.02510256
185	0xbea6c49c	-0.32571876
186	0xbedeea2f	-0.43538043
187	0x3d08a9a1	0.033364896
188	0x3d6fcb90	0.05854374
189	0xbea21b31	-0.3166137
190	0xbe9f76d0	-0.31145334
191	0xbda0b96e	-0.07847868
192	0x3e592b4b	0.21207921
193	0xbd8f4da0	-0.06997228
194	0xbc06ea9f	-0.008234649
195	0x3e686919	0.22696342
196	0x3ec4dbc1	0.3844891
197	0x3e4bf33b	0.19917004
198	0xbf121386	-0.5706104
199	0x3eca0c07	0.394623
200	0xbb8b41c5	-0.0042497837
201	0x3d69f09e	0.057114236
202	0xbe8615f8	-0.26188636
203	0xbdee788c	-0.11644086
204	0x3e1f3f63	0.15551524
205	0xbe09142b	-0.133866
206	0x3d1c9bb4	0.038234428
207	0xbf00d169	-0.50319535
208	0x3e13729a	0.14399186
209	0xbe7a3d83	-0.24437527
210	0xbd97c666	-0.074108884
211	0x3ea22f85	0.3167688
212	0x3db0409e	0.08606075
213	0xbea4e6c3	-0.32207307
214	0xbe5ba553	-0.21449785
215	0xbda6e2e0	-0.08148742
216	0xbd7680d1	-0.060181443
217	0x3dae489f	0.08509945
218	0xbea31c25	-0.3185741
219	0x3bfba2ad	0.0076793046
220	0xbd119784	-0.035544887
221	0xbda33ffd	-0.07971189
222	0xbe1108b8	-0.14163482
223	0x3db5bb1d	0.0887358
224	0xbc9f76a2	-0.019465748
225	0x3ea569b5	0.3230721
226	0x3db76ccc	0.08956298
227	0x3d96388f	0.073350064
228	0x3e037c0b	0.12840287
229	0x3ce642c5	0.02810801
230	0xbeafd8fd	-0.34345236
231	0xbe36c276	-0.17847618
232	0xbe979ee8	-0.29613423
233	0x3e766ee9	0.24065746
234	0xbf05ba6f	-0.522376
235	0xbe0898c6	-0.13339528
236	0x3eaefe88	0.34178567
237	0x3e3328c1	0.17496015
238	0x3e315f09	0.1732141
239	0x3ecc49eb	0.39900145
240	0xbeaef220	-0.34169102
241	0xbe84ed8a	-0.25962478
242	0x3d390933	0.04517479
243	0xbf02e0e1	-0.5112439
244	0xbe6f7808	-0.23385632
245	0xbdc4318c	-0.09579763
246	0xbe74f4b3	-0.2392147
247	0xbe30eb5d	-0.17277284
248	0x3dea10e9	0.114290066
249	0xbe5d2bdf	-0.21598767
250	0x3ec4c3ac	0.38430536
251	0x3dc0dad0	0.09416735
252	0x3e009505	0.12556846
253	0xbe4fa32c	-0.20277089
254	0x3e1286d0	0.1430924
255	0x3dc1f3f3	0.09470358

model/dense/BiasAdd/ReadVariableOp f4 [7]
0	0xbe385300	-0.18000412
1	0xbeda9901	-0.42694858
2	0xbe728038	-0.23681724
3	0xbcf9e59e	-0.030504998
4	0x3e937b7a	0.28805143
5	0xbe8e9dcd	-0.27854767
6	0x3ecde24d	0.40211716

model/dense/MatMul f4 [7, 30976]
0	0x3dcab642	0.09898044
1	0x3d611f9c	0.054961786
2	0xbd249920	-0.040185094
3	0xbe89352b	-0.26798376
4	0xbd97596f	-0.07390105
5	0xbe96ad66	-0.29429168
6	0x3e266f03	0.16253285
7	0xbe2b18f1	-0.16708733
8	0xbecd4cbf	-0.40097615
9	0x3d9e41b8	0.077273786
10	0x3cd38032	0.025817964
11	0xbdea769d	-0.11448405
12	0xb75a94ed	-1.3028487e-05
13	0x3be3f52f	0.0069567184
14	0xbeb0938a	-0.34487563
15	0xbee966f2	-0.45586354
16	0xbe86809b	-0.26269993
17	0x3c8221f1	0.015885325
18	0xbe24619e	-0.16052863
19	0x3c516baa	0.012782017
20	0xbe50bdce	-0.20384905
21	0xbe37a0c0	-0.17932415
22	0x3d8b73c4	0.0680919
23	0x3e267bdd	0.16258188
24	0xbe9f5d33	-0.31125793
25	0x3b69f03a	0.0035696165
26	0x3dc1e219	0.09466953
27	0x3d24e7f8	0.040260285
28	0xbe0909eb	-0.1338269
29	0x3d9cb5d5	0.07651869
30	0x3e5550d3	0.20831613
31	0x3c95b5bb	0.018275132
32	0x3da48777	0.0803365
33	0x3dcc7f1d	0.099851824
34	0x3e7fbb27	0.24973737
35	0xbe512994	-0.20426017
36	0xbd6726e0	-0.05643356
37	0xbc64f2c8	-0.013973899
38	0xbe12071b	-0.14260523
39	0x3d26f527	0.04076114
40	0xbebaa2ed	-0.36452428
41	0xbc37f584	-0.011227969
42	0xbe5850d5	-0.21124585
43	0xbd0c55b7	-0.03426143
44	0xbe38192d	-0.17978354
45	0xbd0cc152	-0.034364052
46	0x3bd132a3	0.00638421
47	0xbcb7e21c	-0.022446685
48	0xbc4f58b7	-0.012655429
49	0xbe5df3c1	-0.21675016
50	0xbe05115d	-0.12994905
51	0xbe6ad128	-0.2293135
52	0x3e4b4704	0.19851309
53	0x3d68bf4f	0.05682307
54	0xbc843903	-0.016140467
55	0xbd693d23	-0.05694307
56	0xbd709e5a	-0.058744766
57	0xbd64b735	-0.055838782
58	0x3d4294cc	0.047505185
59	0xbc67e284	-0.014153127
60	0x3d1e950e	0.03871637
61	0xbe3aa627	-0.18227445
62	0xbd117090	-0.03550774
63	0x3c12bc67	0.008956051
64	0xbe336b84	-0.17521483
65	0xbde5e382	-0.11225034
66	0xbc70786c	-0.014677148
67	0xbe522125	-0.20520456
68	0x3c564ca8	0.0130798
69	0xbd58906a	-0.0528721
70	0xbe9e46c7	-0.30913374
71	0xbea6ce70	-0.32579374
72	0x3d95a75b	0.07307311
73	0xbe51bd5b	-0.2048239
74	0xbe118bf8	-0.1421355
75	0xbe14b855	-0.14523442
76	0x3d7a34eb	0.061085623
77	0xbddb98f3	-0.10722532
78	0xbe852f7e	-0.26012796
79	0xbde107ea	-0.109878376
80	0xbe92a0c1	-0.2863827
81	0xbdfaa8f3	-0.12239256
82	0xbe5ff5f5	-0.21871169
83	0xbd96290a	-0.07332046
84	0xbe2dd922	-0.16977361
85	0x3ca26096	0.019821446
86	0xbd1f862e	-0.038946323
87	0x3d9fed85	0.07808975
88	0x3c602c59	0.013682448
89	0xbe70d02c	-0.23516911
90	0x3cc6c460	0.02426356
91	0xbd1578ee	-0.03649228
92	0x3db2498b	0.087054335
93	0x3cafa26e	0.021439757
94	0x3dde0b0b	0.1084195
95	0xbdb4594e	-0.08806096
96	0xbcb41e07	-0.021986974
97	0x3d84115f	0.06448626
98	0xbb97bd45	-0.004630717
99	0xbe557dff	-0.20848845
100	0xbc8722ba	-0.016496051
101	0xbc049cae	-0.008093996
102	0x3e1d6fe8	0.1537472
103	0xbcbaeedd	-0.022818977
104	0xbe1d9d41	-0.15392019
105	0xbdd111e5	-0.10208491
106	0xbe3d7068	-0.18499911
107	0xbdffa8b1	-0.12483347
108	0xbd705c8a	-0.058682002
109	0xbe59e037	-0.21276937
110	0xbc34f3d2	-0.011044459
111	0xbda19cc2	-0.07891227
112	0x3c2cae96	0.010539671
113	0xbeafab9c	-0.34310615
114	0xbe048c50	-0.1294415
115	0x3da64eb4	0.0812048
116	0x3e2a4b06	0.16630182
117	0xbe0a6e89	-0.13518728
118	0xbe8e4632	-0.2778793
119	0x3d078685	0.033087272
120	0x3e85425a	0.26027185
121	0x3d5d16c6	0.053976797
122	0xbe825c6a	-0.2546113
123	0xbd3adcc6	-0.045620702
124	0xbe13212b	-0.14368121
125	0x3da0eb18	0.078573406
126	0xbcad5254	-0.021157421
127	0x3e732416	0.23744234
128	0x3d2056da	0.039145328
129	0xbd4c5463	-0.049885165
130	0x3c259055	0.010105212
131	0x3e0fd925	0.14047678
132	0x3e4d790d	0.20065708
133	0xbc869a8a	-0.016431112
134	0xbdf85849	-0.12126214
135	0xbec8ef23	-0.39244947
136	0xbf001311	-0.50029093
137	0xbe9dab10	-0.30794573
138	0xbd9f8885	-0.07789711
139	0xbcb55108	-0.022133365
140	0xb9d654d6	-0.00040880468
141	0x3cae5764	0.021281905
142	0xbe27ac1d	-0.1637425
143	0xbea360fe	-0.31909937
144	0xbe76b9ba	-0.24094287
145	0x3e5433b7	0.20722853
146	0xbe87a05c	-0.26489532
147	0x3e8c5b93	0.27413616
148	0x3e89062b	0.26762518
149	0x3da954c3	0.0826812
150	0xbd0da4d8	-0.034581035
151	0x3d581ec7	0.052763727
152	0xbc03c283	-0.008041981
153	0xbe32afd7	-0.1744989
154	0xbe24ac7b	-0.16081421
155	0x3ca73d3c	0.020414941
156	0x3ea1fab1	0.31636575
157	0xbcaa150b	-0.020761987
158	0x3cadf4d5	0.02123491
159	0xbda1a03f	-0.07891893
160	0xbe86192e	-0.26191086
161	0x3e0765f4	0.13222486
162	0xbcc4613f	-0.023972152
163	0x3c26ab59	0.010172688
164	0xbe144c54	-0.14482242
165	0xbbe10b9d	-0.0068678395
166	0x3e82c6d2	0.25542313
167	0xbee3606c	-0.44409502
168	0x3bd1a267	0.0063975337
169	0xbe6edd1a	-0.23326531
170	0x3de8677b	0.11347862
171	0xbe6ae4db	-0.22938864
172	0x3db0f2e8	0.08640081
173	0xbe32a202	-0.17444614
174	0xbd05b5fb	-0.032644253
175	0xbd6386d2	-0.055548497
176	0xbc5d26fb	-0.013498063
177	0xbe24808f	-0.16064666
178	0xbe0d7f84	-0.13818175
179	0x3ce3d64a	0.027812142
180	0xbcc5d375	-0.024148682
181	0xbe2c88c8	-0.16849053
182	0x3e18647a	0.14882079
183	0x3d0f104f	0.034927662
184	0x3d0f5936	0.034997188
185	0x3d14dd32	0.03634376
186	0x3c788ca1	0.015170247
187	0xbd118c4b	-0.035534184
188	0xbf0625e3	-0.5240156
189	0xbd8fcbfa	-0.07021327
190	0x3d249179	0.040177796
191	0xbdb22fbc	-0.08700511
192	0x3dd4c53a	0.103891805
193	0xbdd3b0dc	-0.103364676
194	0xbcad8d4e	-0.021185543
195	0x3e74dbea	0.23912016
196	0xbea0b9e5	-0.31391826
197	0x3dd5aa14	0.104328305
198	0xbe6230d7	-0.22088943
199	0xbecbc485	-0.3979837
200	0xbda69507	-0.081338935
201	0xbdc83776	-0.09776203
202	0xbd43ad5b	-0.047772747
203	0x3b85b6d5	0.004080633
204	0xbce09297	-0.02741365
205	0x3d0c2e99	0.034224126
206	0xbd60445e	-0.0547527
207	0x3b23754e	0.0024941745
208	0x3e1a05d2	0.15041283
209	0xbe3461e2	-0.17615464
210	0x3e166fbc	0.14691061
211	0xbe9090aa	-0.2823537
212	0x3dbc483c	0.09193465
213	0x3d398002	0.045288093
214	0xbd3bc275	-0.045839746
215	0xbe5903bb	-0.2119283
216	0xbe82a767	-0.25518343
217	0xbd3eb7f9	-0.04656217
218	0xbd3702c1	-0.04468036
219	0xbceda9ec	-0.02901169
220	0xbeb84b0f	-0.35994765
221	0x3d83b217	0.06430452
222	0x3db9d572	0.090739146
223	0xbe1cae6b	-0.1530091
224	0x3dd2f850	0.10301268
225	0x3dbe0559	0.09278364
226	0xbe1ac4ce	-0.15114138
227	0xbe529027	-0.20562802
228	0xb9580fb4	-0.00020605215
229	0xbc5d4a49	-0.0135064805
230	0x3e110b85	0.1416455
231	0xbe760cec	-0.24028367
232	0x3da45aea	0.08025153
233	0xbe0f7a17	-0.14011417
234	0x3df6c0e0	0.12048507
235	0xbe0dc94e	-0.13846323
236	0xbd2fdef4	-0.042937234
237	0xbe925d33	-0.2858673
238	0xbc874158	-0.01651065
239	0x3bfd16ba	0.0077236565
240	0x3b65be88	0.0035056192
241	0x3de2ad0f	0.110681646
242	0xbc2a6ae7	-0.010401464
243	0xbdb7fa3b	-0.089832745
244	0xbe7e4b23	-0.2483335
245	0xbd616701	-0.055029873
246	0x3d036bb8	0.03208515
247	0xbd5c641d	-0.053806413
248	0x3d593134	0.05302544
249	0xbde0e2bb	-0.109807454
250	0xbe378604	-0.17922217
251	0xbd773843	-0.06035639
252	0xbe415343	-0.18879418
253	0xbd7d3774	-0.061820462
254	0xbc180528	-0.009278573
255	0x3e717973	0.23581485
